Handwritten Digits Classifier with PyTorch/mnist_net.pth (torch, 903320 bytes, 8 tensors)

conv1.weight f4 [32, 1, 3, 3]
000000 ff 2e 47 3e ca cf 88 3e d1 a9 fd be e4 89 c7 bd
       0.19451521 0.2672103 -0.49543622 -0.097430974
000010 93 97 f8 3e b2 97 23 be b5 c4 a5 bd 81 67 ac bc
       0.48553142 -0.15975836 -0.080941595 -0.021045448
000020 2b 44 cb 3e 18 67 eb be 18 b5 f9 bd d4 1e 3f 3e
       0.39700446 -0.45977092 -0.12192744 0.18664104
000030 67 e5 a5 3d 8c ba 21 3f 67 f2 c9 3e 84 d4 ba bd
       0.08100396 0.6317527 0.3944275 -0.091225654
000040 b9 4d 83 3e 5a 17 2a bf b2 4d ba be 9e c4 52 3d
       0.25645235 -0.6644188 -0.36387402 0.05145704
000050 8c 0b b8 3e af 6b 44 be d8 42 da bd 43 18 8e 3e
       0.3594631 -0.19181703 -0.10657281 0.27752885
000060 72 6d 43 be d2 1b 92 be dc 3e 08 3e bd 2d f5 be
       -0.19084719 -0.2853685 0.13305229 -0.47886458
000070 17 f5 e6 3d 53 10 f2 3e b1 93 20 bf 66 d3 d5 3d
       0.11277216 0.4727808 -0.6272536 0.10440712
000080 51 24 f7 3e 81 34 ea bd 46 eb 87 bd dc 99 c6 3e
       0.48269895 -0.114357956 -0.06636672 0.3878926
000090 2c 8a 68 3e d3 8c ab 3e 30 72 dc 3d 7d 64 cf bd
       0.22708958 0.33505878 0.10763967 -0.101265885
0000a0 1e 40 be 3e e2 cb 33 3e fd 4a 0d bf 73 e1 b3 be
       0.37158293 0.17558244 -0.5519255 -0.35132942
0000b0 74 e7 bb 3d 02 d1 26 bd 97 6f fb bc 9a 4a d8 bd
       0.091750056 -0.04072667 -0.030692859 -0.10561104
0000c0 50 66 3d 3e bd 6a 0e be 68 02 08 bd 47 0e 0c bc
       0.1849606 -0.13907905 -0.03320542 -0.008548326
0000d0 6a 08 42 3c c2 e4 1b bd db 13 68 3d ca 9f 94 3e
       0.011842826 -0.038059957 0.05665956 0.2902816
0000e0 c1 cc ec 3e 23 a7 67 3e 7c 2a 4e 3e 5e 0a 8c be
       0.46249965 0.22622351 0.20133394 -0.2735166
0000f0 17 0d f1 bd fe 5d 06 bf 70 9b 72 be 36 a2 a1 3e
       -0.11770075 -0.5248717 -0.23692107 0.3156907
000100 d9 e0 e2 3c 0f 9a 60 be 07 04 69 3d cf 07 95 be
       0.027695106 -0.21933769 0.056888606 -0.2910752
000110 d4 57 67 be 1a d6 43 be 80 2c 19 be 81 d0 31 3e
       -0.22592098 -0.19124642 -0.14958382 0.17364694
000120 85 75 13 be 98 26 99 be da fe 7b be 0d 78 79 3e
       -0.14400299 -0.29912257 -0.24608937 0.24362202
000130 c3 4b 31 bc 84 fb 0a bf 85 1a a5 3e 1f 8b f0 3e
       -0.010821286 -0.5429003 0.32246795 0.4698114
000140 ff 85 b5 3e 75 a2 f8 be 2a 44 ae be f6 58 72 bc
       0.35453793 -0.48561445 -0.3403638 -0.014791718
000150 cf a9 e0 3d fa 60 c4 3e 04 bd ef 3e ac 26 2f 3e
       0.109698884 0.38355237 0.46823895 0.17104596
000160 60 b0 2d 3d 16 ec ae be 30 73 ec bd b9 83 57 be
       0.042404532 -0.34164494 -0.11545408 -0.21046342
000170 80 0c aa 3e ba 0e 8e 3e ee ab 25 be 5e 59 14 3e
       0.33212662 0.2774561 -0.16178867 0.14487216
000180 3d 8b 1d be 2b 07 c7 bd f4 7a 4c 3d d7 48 dc 3e
       -0.15385146 -0.09718164 0.049921945 0.43024322
000190 1c 69 c5 3e e8 fc 5e be 7b 33 eb 3e f9 e6 88 be
       0.38556755 -0.21776164 0.45937714 -0.26738718
0001a0 8e 40 d8 be c5 2d 41 3d 5f 3f e1 be c5 cd b6 bd
       -0.4223675 0.04716279 -0.4399366 -0.08925966
0001b0 34 6a ff bb a0 ac b1 be 86 20 52 3e e9 37 5d be
       -0.007794643 -0.34702015 0.20520219 -0.2160336
0001c0 7f 6e 87 be b5 17 ec 3e 48 88 8e 3e c0 5b 07 be
       -0.2645149 0.46111837 0.2783835 -0.13218594
0001d0 4e c5 f5 3c 9b 90 4f 3e 96 8e a3 3e 56 59 02 3f
       0.030001309 0.20270006 0.31944722 0.50917566
0001e0 94 a7 20 3e 43 5e 1e bd e2 3b 20 bd 30 dd fa be
       0.15688926 -0.038664114 -0.03911961 -0.48996878
0001f0 99 c9 ba be 0f e1 92 be 29 ef 01 be 33 d5 10 be
       -0.36481932 -0.2868733 -0.12688889 -0.14143829
000200 d2 f6 7b bd 61 3a 8e be 7a c7 59 be 91 90 85 be
       -0.061514683 -0.27778915 -0.212675 -0.26086858
000210 af 16 d7 3d fe 5a 44 3e 56 ba a0 3d f3 36 87 bd
       0.105023734 0.19175336 0.07848041 -0.066022776
000220 0c 51 26 be 33 ad fe 3e 99 59 08 3e 56 6a 3b bf
       -0.16241854 0.49741516 0.13315429 -0.7320913
000230 e0 6f 35 3d ee f7 cc 3e da 41 8c bd fd 53 95 be
       0.044296145 0.40032905 -0.06848498 -0.2916564
000240 c7 d8 c6 3b 98 b5 b8 3d 8b 1b 8d bd 15 82 12 be
       0.0060683223 0.09019011 -0.06890019 -0.14307435
000250 1b b0 45 be 68 9c 36 3e ab e1 12 3e 35 8e 94 3d
       -0.1930546 0.17833102 0.14343898 0.07253686
000260 14 99 5a 3c bc 84 28 3c 29 d0 55 be dc 76 5f 3d
       0.013342161 0.010285553 -0.20880188 0.054556713
000270 15 18 92 3d cf de ab 3e 6e cd e4 3e 25 53 63 bd
       0.071334995 0.33568427 0.4468798 -0.055499215
000280 e0 8d af be bf 1c c0 be 9e fe 48 bd a9 3b 24 3f
       -0.3428793 -0.37521932 -0.049070947 0.64153534
000290 58 05 e4 3e 6a e7 b6 be a5 52 e4 be b7 c1 fd 3d
       0.44535327 -0.3572343 -0.44594303 0.12390464
0002a0 c4 30 41 bd 20 70 d9 be d5 6b 20 be d6 0c e3 3e
       -0.047165647 -0.42468357 -0.15666135 0.4434573
0002b0 67 80 8f 3e 0d ba dc 3e 48 e2 9b be d2 a2 16 be
       0.2802765 0.43110695 -0.30446076 -0.14710549
0002c0 f8 db 17 be 49 93 c3 be ee c8 34 be bc 0a aa be
       -0.14830005 -0.38198307 -0.17654774 -0.33211315
0002d0 e4 f1 16 3e ba ba a6 3e ad d5 af 3c 60 ae c1 be
       0.14740711 0.32564336 0.021464193 -0.3782835
0002e0 74 8a 77 be b5 73 58 be 63 60 8f 3d a2 21 41 be
       -0.2417391 -0.21137889 0.07000806 -0.18860486
0002f0 fb e0 d2 bd 72 67 39 bd 23 71 10 3e 47 d6 c4 be
       -0.10296818 -0.04526467 0.14105658 -0.3844473
000300 cd 24 fd 3e 36 c3 95 be 59 fe 2d be 32 7e be 3d
       0.4944214 -0.29250497 -0.16991557 0.093014136
000310 45 d5 8c 3e 0d 75 dc bd ce 0d 9b 3d 43 99 db be
       0.27506462 -0.10764513 0.075709924 -0.42890367
000320 2f 9c ed be 55 5e 85 be 96 55 2d be 0d a3 eb 3d
       -0.4640822 -0.26048532 -0.1692718 0.11505709
000330 76 5e c4 3d db 36 15 3f ad d0 fd 3e 34 3f b4 3d
       0.095883295 0.5828683 0.4957327 0.088011175
000340 32 ef cf 3e 7f 56 10 3e 92 41 3c be 8f 17 aa 3e
       0.4061218 0.14095496 -0.18384388 0.332211
000350 6f bc 19 be 8a 3d 84 3e f9 71 a0 3e 1a ee d6 bd
       -0.15013288 0.258282 0.31336954 -0.10494633
000360 32 24 26 bd 44 85 09 3e b1 6a e5 be ac f9 b6 bd
       -0.040561862 0.13429743 -0.44807962 -0.0893434
000370 73 80 d6 3d 2d 9b 9b bd 90 1f b4 be 97 39 86 3e
       0.104737185 -0.07597957 -0.3518033 0.26215813
000380 ea b5 9b 3e 2c b3 b6 3e b3 a3 24 be 15 66 06 bf
       0.30412227 0.35683572 -0.16078071 -0.52499515
000390 fc 0e d5 3e b4 fd 16 3e ee 7e ce be a6 57 99 bd
       0.41612995 0.14745218 -0.40331215 -0.07487421
0003a0 01 65 a0 3e 76 8b 7b be 5b 7a 65 be 06 89 9b 3b
       0.3132706 -0.24564919 -0.22409956 0.004746559
0003b0 07 e2 97 3d 3a 3e 07 be 98 c5 15 be dc e3 c8 3e
       0.07416158 -0.13207331 -0.14626157 0.39236343
0003c0 1d 1d 29 3e a9 f8 ff bd 90 30 9e 3d 0f b9 83 3e
       0.16515012 -0.124986 0.07724106 0.25727126
0003d0 66 92 9c 3d 8e 00 19 3f fd cd 91 bc 75 8b 91 be
       0.07645111 0.5976647 -0.017798418 -0.2842671
0003e0 76 5a de 3e e0 a6 af be c8 ac 1f bf 51 d5 82 3b
       0.4342839 -0.34307003 -0.6237302 0.0039927145
0003f0 df da 35 3d fe 07 4b bd 4a 50 01 3e ed dc 1c 3e
       0.044398185 -0.04956817 0.12628284 0.15318651

conv1.bias f4 [32]
000000 cf 21 d8 3b 89 19 15 3e 28 6b e4 be 4b 64 6f 3e
       0.006595827 0.14560522 -0.44613004 0.23378102
000010 3c 13 60 3d 98 d2 a4 be 7f 8d 8c be c9 4b 7d be
       0.054705843 -0.3219192 -0.27451703 -0.24735941
000020 80 4f 25 be 2a 07 2b be a8 f4 35 be e0 a3 0d be
       -0.16143608 -0.16701952 -0.1776911 -0.13832045
000030 ad c1 26 be 4b 3c 5d bd a1 fe be be 63 41 5f be
       -0.16284819 -0.054012578 -0.3730364 -0.21802287
000040 95 3e 27 be 3d 9d f1 bd d2 86 94 be ba 76 bd 3c
       -0.16332467 -0.11797569 -0.2900911 0.023127902
000050 13 76 c9 be 45 c2 13 be 03 e3 f8 3c 84 42 a9 bd
       -0.39347896 -0.14429577 0.030381685 -0.0826464
000060 f8 b1 63 be 89 b9 4f 3d bf 10 2a be de bb 32 be
       -0.22235858 0.05071405 -0.1660795 -0.17454478
000070 e3 75 5a be 05 0e 6d be bf 2f 97 be 47 4e 17 bd
       -0.21334033 -0.2314988 -0.29528615 -0.036939885

conv2.weight f4 [64, 32, 3, 3]
000000 c8 c9 87 bd ed fb 01 3c 42 bd ac 3d 98 13 26 be
       -0.066302836 0.007933599 0.084345356 -0.16218412
000010 45 e5 7d 3d b2 c6 93 3c f9 24 29 3d eb ed 9d 3d
       0.061986227 0.018039081 0.041295025 0.07711395
000020 ca 37 97 3c a0 14 e9 bd d6 ce f1 bb 32 99 41 3d
       0.01845922 -0.11380887 -0.007379393 0.04726524
000030 96 8a 22 3d 00 94 00 3e 14 fb a7 3c 5f 7a 3b bd
       0.039682947 0.12556458 0.020505466 -0.045771
000040 eb df 11 3c 3e 33 01 bc 10 08 a1 bd 5f be 32 bc
       0.008903484 -0.007885752 -0.07862866 -0.010909646
000050 01 87 17 be 52 95 6a 3d 25 e5 8e bc 59 94 94 bd
       -0.14797594 0.05727131 -0.017443249 -0.072548576
000060 e9 99 c2 3d 5f c4 85 3d 37 48 ef bd 70 e0 48 3c
       0.09502012 0.065315954 -0.11683696 0.012260541
000070 27 6c 1a 3d e4 1c 4f bd 4e fd 00 3e 62 87 e6 3d
       0.0377008 -0.05056466 0.12596628 0.11256291
000080 1f 7f 63 bc 92 ea 86 3c 17 6d cb bc aa bd 98 bd
       -0.0138852885 0.016469274 -0.024832292 -0.074580505
000090 a5 c1 d6 3b c4 38 78 bd dd 1e cb bd e1 84 de bd
       0.006553846 -0.06060101 -0.09917996 -0.108651884
0000a0 b9 c6 8f 3d cc 2c 7f bd d2 ec af 3d 30 e0 49 3e
       0.07020325 -0.06229858 0.08590092 0.19714427
0000b0 f0 6c 96 3d 58 9a ae 3c cd ef 1c bd fd e9 1e 3c
       0.07344997 0.021313831 -0.03831463 0.009699342
0000c0 47 6a b0 bd 8f 24 56 be b3 fa f3 bd f0 ef 84 3b
       -0.08614021 -0.20912383 -0.119130515 0.004056923
0000d0 48 12 eb bd d1 b7 bf bd 25 95 08 3e df cb 76 bc
       -0.11478096 -0.09361232 0.13338144 -0.015063255
0000e0 71 fc 2c be 03 b8 6f be 5f 4b 11 be 12 b0 e9 bd
       -0.16893174 -0.23410039 -0.14188908 -0.11410536
0000f0 92 73 ec bd cb be a9 3d 32 cb ff 3c ef 41 9b 3d
       -0.11545481 0.08288344 0.03122482 0.07580935
000100 db 84 6e 3b 24 fc c2 bd 37 8b 80 3a a1 26 15 be
       0.0036395106 -0.09520748 0.0009807114 -0.14565517
000110 31 16 9d be d3 d9 98 bd 38 ce d3 bd f7 e2 8d bd
       -0.30680993 -0.07463422 -0.103420675 -0.06928056
000120 3c a7 d8 3c f1 53 3f 3c f0 e0 cf 3d 30 56 15 be
       0.026446931 0.011677728 0.10150325 -0.14583659
000130 0b dc aa bd 19 72 04 be 74 42 46 be c7 d8 73 be
       -0.08342751 -0.1293415 -0.19361287 -0.23813163
000140 f5 9b 53 be 33 63 94 bd 0d 36 b3 3d 39 48 4c 3c
       -0.20664962 -0.07245483 0.08750544 0.012468391
000150 0b b0 11 bd c2 d2 f4 3c 0a b8 f6 3c f7 06 89 be
       -0.03556828 0.029885653 0.030117054 -0.26763126
000160 6c 81 46 be d0 c5 ae bd d8 7a d8 bd 91 8f 85 3d
       -0.19385308 -0.085338235 -0.105703056 0.06521524
000170 cd 5d 17 be 9f 24 9c 3d b5 05 31 3d ef de 1a bd
       -0.14781876 0.076241724 0.043218333 -0.037810262
000180 f5 52 50 3d 71 09 eb 3c 31 37 01 be 51 73 9c 3d
       0.050860364 0.028691025 -0.1261871 0.07639182
000190 8e 43 b8 bd 76 ae 88 bd 5e 5d 4a be 0c dd 6a be
       -0.0899726 -0.06673901 -0.1976218 -0.22935885
0001a0 4f a5 d1 bd 14 a6 71 be a2 e2 17 be 7d c1 40 bd
       -0.10236608 -0.2359851 -0.14832547 -0.047059525
0001b0 5d 41 52 3d 53 a1 a7 3d 52 a0 9f 3b e9 c8 92 3d
       0.051331867 0.08185067 0.0048714066 0.07167227
0001c0 03 e3 45 bd 0a 4f fe bd b3 8f 40 be f6 7c ec bd
       -0.0483122 -0.12417419 -0.18804817 -0.11547272
0001d0 fe 2e 7f be 7e d4 b6 3d 15 7a 1d 3d fb b3 e3 bd
       -0.2492027 0.089272484 0.038446505 -0.11118313
0001e0 d9 06 70 be 95 33 ee bd aa 54 d1 bd 20 58 7e bd
       -0.23440112 -0.11630932 -0.102212265 -0.06209576
0001f0 fd 0d 01 3e dd 5c 45 3c dd a1 b0 3d 85 66 95 3d
       0.12602992 0.012046066 0.08624623 0.07294945
000200 8f 01 9f 3c fe b5 f1 bc b6 2f 46 be a0 4c fe bd
       0.019409923 -0.029505726 -0.19354138 -0.12416959
000210 51 09 3f bd 90 dc bc bd 85 72 ee bd 9a 58 38 3d
       -0.046639744 -0.092217565 -0.116429366 0.045006372
000220 3d 07 b7 be 47 aa ed bd d6 1a f3 3d 3c 09 99 bd
       -0.3574771 -0.116047435 0.11870353 -0.074724644
000230 c5 5a 51 be 9e cb cd 3e 54 bf fc 3d 8a 1a 1b be
       -0.20444782 0.4019441 0.123411804 -0.15146843
000240 bd 5b f9 ba f0 7b 1b 3e d9 5f a3 3d 40 e2 eb 3c
       -0.0019024533 0.15183997 0.07977266 0.028794408
000250 cd 52 06 bd 56 b0 3b 3d a1 2a c6 bd a6 f3 3c 3d
       -0.03279381 0.045822464 -0.096760996 0.0461308
000260 4a f1 5f bd 5c 54 c2 3d 3c 15 ef bb 21 35 09 be
       -0.05467347 0.094887465 -0.0072962325 -0.13399173
000270 3d 79 d4 bd 41 f0 04 be 15 3a 91 bd 69 e2 fe 3b
       -0.10374687 -0.12982275 -0.070911564 0.007778455
000280 2b 0d a3 3d 66 27 da bd 63 be 77 3d f1 c8 11 3d
       0.07961496 -0.10652046 0.0604843 0.035592023
000290 65 83 df bd 95 c7 27 be c1 14 a3 bd b4 8a 3e be
       -0.109137334 -0.16384728 -0.07962943 -0.18607599
0002a0 7b 59 1d 3d 33 92 14 3e dd 10 c6 bc dc e7 00 3e
       0.038415413 0.14508896 -0.024177963 0.12588447
0002b0 f7 c0 56 bd 4f 11 55 be 58 0f f8 bd 68 6b e8 bd
       -0.05243012 -0.20807384 -0.121123016 -0.11348611
0002c0 d1 be 67 be 54 58 78 3d fa 43 1c 3d 78 7b c6 3c
       -0.22631384 0.06063111 0.038150765 0.024228796
0002d0 4a fc e3 3d cd 62 53 bc c2 a7 8b bd 0a 34 3e be
       0.11132105 -0.012901974 -0.06819107 -0.18574539
0002e0 81 f3 13 be c6 b2 9c be 39 21 4f bd ee 7c 88 3c
       -0.14448358 -0.30605143 -0.050568793 0.016661134
0002f0 4a 6d 57 3c ee 81 82 be 29 66 99 be e8 b9 b1 bd
       0.013148615 -0.25489753 -0.29960755 -0.08678037
000300 50 a4 6a be 0d f4 a1 be 62 31 f6 bd ab b4 df bd
       -0.22914243 -0.31631508 -0.12021138 -0.109231316
000310 42 5d 4e be eb 8c 9e bd 18 ec 47 3e 38 7f dc 3d
       -0.20152763 -0.07741722 0.19523656 0.107664526
000320 ea 96 e0 3d 4f bf 7e 3d 75 16 39 bd ef 40 b8 bd
       0.109662846 0.062194165 -0.045187432 -0.0899676
000330 5f ca 47 be 34 86 40 be 54 04 6a bd 83 76 7a be
       -0.19510792 -0.18801194 -0.057133034 -0.24459271
000340 b0 9b 13 bd e6 07 e5 3c 27 75 ac 3d f7 c6 13 3e
       -0.036037147 0.027957868 0.084207825 0.14431368
000350 1e ac 26 3e a7 3a 88 bd 56 34 6a bd be bb 77 3d
       0.16276595 -0.06651812 -0.057178818 0.06048178
000360 a1 b0 0f 3e f6 ec 10 3e ed 16 c7 3b 31 79 99 3d
       0.14032222 0.14152893 0.006075731 0.074938186
000370 d8 31 9e 3d 13 f6 24 be e9 ac 06 be ea 84 2b bd
       0.07724351 -0.16109495 -0.13151897 -0.041874804
000380 f7 bc 28 bd 6a b4 aa bd 23 99 a1 be 4e 55 26 bd
       -0.041195836 -0.083351925 -0.31562147 -0.040608697
000390 68 8d 97 be f8 9a 4e be 7e cb 04 be 25 26 68 3d
       -0.29600072 -0.20176303 -0.12968251 0.056677002
0003a0 fd 41 3b be a5 0f fd bd ff a9 b9 3c 03 e2 06 3e
       -0.18286891 -0.123564996 0.022664068 0.13172154
0003b0 bc 3e 94 bd bb 7c c4 3d b1 da 99 3d 55 68 aa bc
       -0.07238528 0.09594103 0.07512415 -0.020801703
0003c0 02 f7 00 be 0b 10 a2 bd 77 fc 6a be b4 55 94 bd
       -0.12594226 -0.07913216 -0.2294787 -0.07242909
0003d0 23 f5 1f 3d e4 29 a6 be 16 0f ec bd 08 c3 81 bc
       0.03905214 -0.32453835 -0.11526315 -0.015840068
0003e0 51 61 f9 bd 3a ea c4 3d 8a de f1 3d f4 f4 e1 bd
       -0.12176765 0.09614988 0.11810024 -0.11033049
0003f0 41 28 12 3e 07 9e c4 3d 15 e7 99 bd 5e 16 3e 3c
       0.14273168 0.09600454 -0.075147785 0.011602012

conv2.bias f4 [64]
000000 60 c8 d8 3c 54 52 b6 bb e7 ea bc bc cf 09 0c bc
       0.026462734 -0.0055640135 -0.023061229 -0.00854726
000010 ed ce 0f bd 94 0e 22 bd 3c 55 8f bd 6a ba 4f bd
       -0.03510945 -0.039564684 -0.06998679 -0.050714888
000020 1e 88 0e bc e2 b1 3b be 5c 2f 7b 3d 4b 79 63 3c
       -0.008699445 -0.18329576 0.061324462 0.013883899
000030 63 c4 1b 3d 04 cb 05 3d ef 23 28 bd 69 cb 94 bc
       0.038029086 0.032664314 -0.041049894 -0.0181634
000040 bf dd b1 bd 96 7b 51 bd aa 50 0d bd f4 7e b7 3c
       -0.08684873 -0.05114325 -0.034500755 0.022399403
000050 e1 ef 94 bc a6 0a 33 bd 1d e7 0c bc 8a 0d 0f ba
       -0.01818079 -0.043711327 -0.008600024 -0.00054570346
000060 d8 0e 1e bc 2c b4 fc bd ee 17 17 bd 7b a1 c4 bd
       -0.009647094 -0.123390526 -0.036888056 -0.096011125
000070 fb 82 54 3c 0f 36 da bd fc ff 2a bd ae 30 bc bd
       0.012970681 -0.10654842 -0.041748032 -0.091889724
000080 a9 e3 10 be d5 1c a8 bd 3d bd 79 bd 74 fd 0e be
       -0.14149345 -0.08208624 -0.060971487 -0.13963872
000090 1f f0 ae bd ad b7 27 bc 8b ea 4c bd a1 77 cc bd
       -0.08541893 -0.010236663 -0.050028365 -0.09983755
0000a0 4e 85 c6 bd 48 1d 9f bd d0 48 93 bd 20 2e 3a bd
       -0.096933946 -0.07769257 -0.07191622 -0.045454144
0000b0 a9 16 f6 bd 6c b7 93 bd a8 fa 7d bd 63 7e fb bc
       -0.12016041 -0.07212719 -0.062006623 -0.030699914
0000c0 68 39 ae 3c 0d 65 1c 3d 33 0c 9c bd ca e6 67 bd
       0.021267608 0.038182307 -0.07619514 -0.056616582
0000d0 ca 19 43 bd 18 5a 1e bd 47 d2 a2 bd 3f a9 cc bc
       -0.047632016 -0.03866014 -0.079502635 -0.024983047
0000e0 22 df d3 bb 65 64 be bd db 90 ee 3c 5b 15 c1 bc
       -0.0064658085 -0.092964925 0.029121807 -0.023569753
0000f0 87 b9 72 bc 60 cf 5e 3d 98 57 23 bb d8 88 11 3d
       -0.014814741 0.054396987 -0.0024924036 0.035530895

fc1.weight f4 [128, 1600]
000000 19 3e 7b bc a9 4e 1b 3d 2a 40 2e 3d 03 c3 76 bd
       -0.015334629 0.037916813 0.04254166 -0.06024457
000010 55 5a 64 3d b2 b3 f0 bd f8 3b 1e bd 83 9a d3 bd
       0.05575021 -0.11753024 -0.03863141 -0.10332205
000020 c6 5a cb bd 68 b4 8d 3d b1 bb 71 3d 21 9b 69 3d
       -0.09929423 0.069191754 0.059016887 0.057032708
000030 29 85 3b be de ff ac bd 97 c4 0d 3c b2 53 0f 3e
       -0.18312515 -0.0844724 0.008652828 0.13996771
000040 d1 85 a6 bd 3e fe 37 be 60 c4 3d be 24 cc 7a 3d
       -0.08130992 -0.1796808 -0.18531942 0.06122984
000050 69 f5 44 3d 89 41 c7 3d 55 32 35 bd e6 19 60 bd
       0.048085604 0.09729297 -0.044237453 -0.0547122
000060 6f 0f 8d 3d 27 bb dd 3c ff f0 2c bd 77 67 ca 3d
       0.06887709 0.02706678 -0.04222202 0.098830156
000070 aa 77 db bd 44 40 22 3e 8c c3 1c 3b ea 06 86 3c
       -0.107161835 0.15844828 0.0023920266 0.016360719
000080 c4 62 0e bd 57 f1 c1 bc 53 b8 60 3d 38 9a 18 3e
       -0.03476216 -0.02367465 0.054863285 0.1490258
000090 26 62 11 3e 1f 7d c2 bd a4 bd b3 3d 09 73 29 be
       0.14197597 -0.09496521 0.087764055 -0.16547789
0000a0 5d 38 cc 3d 1e c6 50 3e 9b 68 07 3e a4 93 38 be
       0.09971688 0.20388076 0.13223498 -0.1802507
0000b0 89 2d 48 bd 1e cb 53 3d f7 f7 93 bd 7f 03 de bd
       -0.04887155 0.05170738 -0.0722503 -0.108405106
0000c0 f6 d8 29 be 4e 42 0b be 1a 7b 69 bb 05 be 95 bc
       -0.1658667 -0.13599512 -0.0035626353 -0.018279085
0000d0 91 4f 60 3b 80 d8 b9 bc 5c b9 51 bc a0 b4 8e bc
       0.0034227113 -0.022686243 -0.012800541 -0.017420113
0000e0 76 bf 25 3c 8f 09 67 3b dd 7c 04 ba aa 54 77 bc
       0.010116449 0.00352535 -0.00050540065 -0.015095869
0000f0 ec 1b c5 3b 09 fb 9f ba bb be 95 3c e5 de d9 bb
       0.0060152914 -0.0012205552 0.018279424 -0.0066488856
000100 2b 33 b8 3c 7a b3 d4 bb 5b e1 2a 3c 59 a7 af bc
       0.022485336 -0.006491122 0.0104297055 -0.021442102
000110 92 b8 69 bc b7 18 e9 bc 47 3f f9 bb 89 a7 7f 3b
       -0.014265196 -0.028454168 -0.00760642 0.003900977
000120 f1 00 6e bc 96 0d 85 bb ec 86 1f bc 6e b2 7b bc
       -0.014526592 -0.0040604575 -0.009736758 -0.015362365
000130 3f 69 99 bb bd d3 fc 3c aa 8b 01 3d 86 9c d8 3c
       -0.0046817358 0.030862683 0.031627335 0.026441824
000140 89 c6 8a 3c a8 54 54 3b 24 7f 29 bd 69 7e d0 bb
       0.016940372 0.0032399092 -0.041381016 -0.0063627255
000150 b1 95 06 bd 49 9d 3b bc 2a d6 36 bb 9d 62 fa 3c
       -0.0328576 -0.011451074 -0.0027898648 0.0305646
000160 aa 5e ad bc bc f0 0a bc a5 e5 a3 bc 68 f1 60 3d
       -0.021163303 -0.008480247 -0.020006964 0.054917723
000170 1f 7a b0 3c 1c 27 a1 bc db 5d 73 bc 8e a2 14 bb
       0.021542607 -0.01967197 -0.01485392 -0.0022679898
000180 97 83 64 bd 02 68 32 bd 72 a1 6e bc 8f f8 95 bb
       -0.055789556 -0.04355622 -0.014564859 -0.0045767496
000190 b8 3b b8 bd f5 6a 6d bd fd 38 0f bd a4 4b 2a bd
       -0.089957654 -0.05796333 -0.034966458 -0.041576043
0001a0 0f 64 82 bb 62 8a 1c bd a3 3c 21 bd 1c ce 44 bd
       -0.003979213 -0.03821791 -0.03936447 -0.048048124
0001b0 fa aa 5a bd b5 df a4 bd 62 cb f4 bc 3d d1 10 bd
       -0.053385712 -0.08050481 -0.029882137 -0.035355795
0001c0 49 3a 56 bc a9 79 45 bd 18 80 a4 bd 2c ff 0b bc
       -0.01307542 -0.048211727 -0.080322444 -0.008544724
0001d0 dc 8b 99 bd 37 9d ac bb 10 bc c7 bc a5 70 a5 bd
       -0.07497379 -0.005267765 -0.024381667 -0.08078126
0001e0 16 59 27 3d ab fc 63 bc 97 cd 88 bc bb 93 79 bd
       0.040856443 -0.013915221 -0.016699595 -0.060931902
0001f0 42 fd 90 bd 58 b9 1b be cb fa 29 bd a9 4c c4 3c
       -0.07079555 -0.15207422 -0.04149894 0.023962336
000200 57 36 03 3c 70 c5 c1 3c 93 4d a6 bd 9a e7 b4 bd
       0.008008561 0.023653716 -0.08120265 -0.08833237
000210 69 29 0f be 83 1c d1 bd 98 ef 65 3d 4c 3e a8 3d
       -0.1398064 -0.10210516 0.056136698 0.08215007
000220 4d 90 18 3e 91 a2 04 3e 43 d4 af 3d 7c 2f 4d 3d
       0.14898796 0.12952639 0.085854076 0.050094113
000230 5e 48 b6 bc 7c 89 09 3d ed 19 fe 3c e9 5d 7f 3b
       -0.022251304 0.03357838 0.031018222 0.0038965887
000240 63 55 00 3e 6a 42 44 bd e4 03 94 bd 71 54 c4 3b
       0.12532572 -0.0479149 -0.072273046 0.0059915115
000250 ed b3 0c 3d ea f8 f2 bb 9b 63 08 bc 2b 62 93 3c
       0.034351278 -0.007414927 -0.008324529 0.017991146
000260 3e 30 8d bd 76 47 46 3d 10 f5 bf bc e5 44 1c 3d
       -0.06893967 0.048407994 -0.023432285 0.03815164
000270 c8 1a 17 bc da 42 f9 3d a8 90 97 bd 5c dd b4 3c
       -0.009222694 0.12170954 -0.07400638 0.022078209
000280 c3 cb e5 bc 01 81 cd 3c 82 2f 8b 3c dd 67 ce 3d
       -0.028051263 0.025085928 0.016990427 0.10078404
000290 8c 8b d6 3d 73 dc 3e bc 28 06 1b be 9e 6a 34 be
       0.10475835 -0.011649239 -0.15139067 -0.17618796
0002a0 40 2c c9 bd dc f4 ce bc bc 09 67 3c 57 e8 c9 bb
       -0.09822893 -0.025263242 0.014101442 -0.0061617303
0002b0 b2 a7 1f be 60 f7 68 3d f9 59 73 bd f2 f4 c7 3c
       -0.15591314 0.05687654 -0.059411976 0.024408791
0002c0 f4 3c a9 bb 9a 4e 02 3c 0b 6e ff bc 29 65 89 3c
       -0.005164737 0.00795331 -0.031180402 0.01677187
0002d0 6a aa 81 bc a0 91 7f 3b 0e 32 fd 3a f6 bd 13 bd
       -0.01582833 0.0038996711 0.0019317286 -0.036069833
0002e0 dd 94 06 3c 14 2b 87 3c 07 1f 63 3c 40 1e a9 bc
       0.008214203 0.016500033 0.013862378 -0.020644307
0002f0 a4 42 5c 3c 88 fb e8 39 62 70 c8 3c 1f b2 61 bd
       0.013443623 0.00044437894 0.02446765 -0.05510151
000300 47 6f c5 bc 56 3c 88 bb d0 72 4a bc be 7a c4 3b
       -0.024100913 -0.004157583 -0.012356475 0.0059960773
000310 df 54 a6 3c c7 d9 a6 3b 60 a4 3c 3c 6b c4 5f 3c
       0.020304142 0.005091879 0.011513799 0.01365767
000320 66 4c 55 3b ed cd 75 3d 8f d9 85 3c 70 d2 13 3b
       0.0032546758 0.06001084 0.016339092 0.002255585
000330 35 22 06 bb 72 ca 76 bd e5 de 0f bc dc 69 d4 bd
       -0.0020467166 -0.06025166 -0.00878117 -0.103717536
000340 af e1 7f 3d b8 f7 05 be 0a 67 1f bd b1 d1 85 3d
       0.062471088 -0.13082778 -0.038916625 0.06534136
000350 e8 f3 8f bc 3a ce a0 bd 7f 27 4f 3e 42 ec 48 3e
       -0.017572358 -0.078518346 0.2022991 0.19621375
000360 26 19 58 3e 15 bb 8c 3d c0 d2 94 bd 38 9d 28 be
       0.21103343 0.068716206 -0.0726676 -0.16466224
000370 1d 0a a6 bd 69 8a dc 3b 6b d8 be bc cf a4 45 bd
       -0.08107398 0.006730367 -0.023296556 -0.048252877
000380 21 ce 65 3c e0 a1 89 3d 48 10 5f 3d 1b 31 e8 3d
       0.014026196 0.06720328 0.054458886 0.11337491
000390 02 d0 c5 bb 25 72 bb 3c 02 a5 93 bc 60 74 d2 3d
       -0.0060367594 0.022881577 -0.018023018 0.10276103
0003a0 df 21 09 3d 4c 07 74 3c 6b 80 13 bb 21 79 06 3e
       0.033479568 0.014894318 -0.0022506963 0.13132145
0003b0 da 66 e8 3d 48 e3 24 3b 52 10 06 3e 4a 32 1a 3c
       0.113477424 0.0025159884 0.13092163 0.009411404
0003c0 49 38 f8 3d 38 9e 03 3e f5 b9 84 ba d7 00 eb bd
       0.121201105 0.12853324 -0.001012622 -0.114747696
0003d0 1b 79 f7 3c ac 5e f2 3d be 4c 84 be ee 48 3a be
       0.030209115 0.118344635 -0.258398 -0.18191883
0003e0 f9 bb c1 3c a8 f0 21 3e b4 c4 e5 bd 89 c9 01 3e
       0.023649203 0.1581446 -0.11219159 0.12674536
0003f0 43 d6 cf 3d c1 5f 53 3e 1f 2d b2 bb 07 d7 08 bd
       0.10148289 0.20641996 -0.0054375078 -0.03340819

fc1.bias f4 [128]
000000 bf 90 55 bd fc d0 86 3c 1e 71 0c 3d 0c 37 16 bc
       -0.052139994 0.016457073 0.034287564 -0.009168398
000010 60 1f 87 3c 92 90 ba bb c7 72 00 3d 9b 93 a0 3c
       0.016494453 -0.0056935037 0.03135946 0.019601634
000020 d7 47 72 bc 9d 5e 95 bc a5 38 a5 bc 90 dd bd bc
       -0.014787636 -0.018233592 -0.020168612 -0.023176938
000030 c6 82 8c 3d fd dd 46 bc 80 b3 4e bd 50 09 71 bb
       0.068608806 -0.012137887 -0.050464153 -0.0036779232
000040 44 73 84 3c 5a 37 69 3d bf 6a 2f bc d6 71 3c 3b
       0.016168244 0.056937553 -0.010706603 0.0028754375
000050 03 67 ff bb 88 d9 84 3c 07 c9 ee 3c d3 e5 5e bc
       -0.0077942624 0.016217008 0.029148592 -0.013604599
000060 9c d5 df 3c 6f 88 51 bd 7a 63 82 3c 7f ce f0 bc
       0.027323537 -0.051155504 0.015916575 -0.02939534
000070 f4 08 82 3c 0c ce 8d 3c 73 a8 0d bd d0 bd 2f bd
       0.01587341 0.017310165 -0.034584474 -0.04290563
000080 d5 76 87 3d ed 9b 45 bd fc 43 9c bd 8d ad a5 bc
       0.06614462 -0.048244406 -0.076301545 -0.020224357
000090 15 3a 18 bb 6b 78 d2 bc 6b ca 1d bd 2e 07 91 bc
       -0.002322798 -0.025692185 -0.03852312 -0.017703619
0000a0 28 f5 20 bd 8b 88 5a bd 22 76 8d bc cc 46 02 bc
       -0.0392963 -0.053352874 -0.017268244 -0.00795145
0000b0 c0 ef 83 bb 2e 7d f5 3c c1 33 20 bd da c6 14 bc
       -0.004026383 0.029966917 -0.039111856 -0.009080613
0000c0 e9 56 dc bc 2a 94 99 ba 24 ac 64 bd 1e 29 09 bc
       -0.02689691 -0.001171713 -0.05582823 -0.0083716195
0000d0 33 8c 67 bc b2 8b 39 bd fa 9a c9 bc bc 50 b2 bd
       -0.014132547 -0.04529924 -0.024610031 -0.08706805
0000e0 d0 07 dc bc da 71 66 bc ce e2 23 bd e8 d9 83 bc
       -0.026859194 -0.01406523 -0.04001122 -0.016095117
0000f0 49 0f 60 3d 82 d9 26 3b 31 28 54 bd a4 3b d9 bc
       0.054702077 0.0025459235 -0.051796142 -0.026517697
000100 29 59 30 bd 33 7e a9 3b 8c 1a 31 3d bf eb 48 3d
       -0.04305378 0.005172515 0.043238208 0.04905295
000110 3b 58 64 bc c9 38 57 3d 8b 0e d7 bc df 4f 2b 3d
       -0.013937051 0.05254439 -0.026252052 0.041824218
000120 99 4a b1 bc ac c4 15 bd ec ae 88 bc d7 9c c4 3c
       -0.021642016 -0.036564514 -0.016684972 0.024000568
000130 18 57 b1 bc 3d 40 5c 3d 59 ba 7b bd 6b df d8 3a
       -0.021647975 0.0537722 -0.06145701 0.0016546076
000140 e3 0a a4 bd 26 01 b0 3d 5a 64 a9 bd 27 0d 1d 3d
       -0.08009889 0.08593969 -0.08271094 0.03834262
000150 4a 63 9c bb b5 5a 57 bd 6d 42 13 bd 5a 0e bb bd
       -0.0047725784 -0.05257674 -0.03595202 -0.09133597
000160 93 42 06 bd be 75 7a bc 44 af 6e bc 17 c9 d5 bc
       -0.032778334 -0.015286861 -0.014568154 -0.026096864
000170 58 3d cc 3c e9 e4 da 3b 32 eb 54 ba ad 37 38 3d
       0.024931595 0.0066801202 -0.0008122205 0.04497497
000180 4f 89 63 3d da 7e 9f bd 35 0b 30 bd f1 4d 66 bd
       0.05555087 -0.07787867 -0.042979438 -0.056226674
000190 8f 0d 90 bd 09 ff 32 3d 0e 75 8d 3c e1 b5 35 bc
       -0.07033836 0.04370025 0.01726773 -0.011090727
0001a0 06 3c 2e bd ea f6 68 3d da 63 17 3d 5b bf e5 3c
       -0.04253771 0.0568761 0.03696046 0.028045347
0001b0 c5 5c 92 3d 16 c5 21 bd 73 1d b5 3b 15 4b 69 bc
       0.07146601 -0.039494596 0.0055271923 -0.014239092
0001c0 07 17 ef bc 37 70 6e bc d5 26 dd bc f0 c7 ac 3d
       -0.029185785 -0.014553121 -0.026996056 0.084365726
0001d0 1f a9 0a bc 8f 90 74 bc 33 87 05 3d 96 c4 8b 3c
       -0.008463173 -0.014927044 0.03259964 0.017061513
0001e0 0a ff 1c bc 76 2d b6 3d 7d 9d f5 bc fb 0a 08 3c
       -0.00958229 0.0889539 -0.029982323 0.008303399
0001f0 58 13 24 bc f9 2d 15 bd f2 05 08 3b 3a d8 2f bc
       -0.010014378 -0.036420796 0.0020755497 -0.010732705

fc2.weight f4 [10, 128]
000000 f1 07 c9 bd b4 45 6a be 29 ef 19 3e 6c ee e8 3c
       -0.09815968 -0.22878152 0.15032639 0.028434
000010 68 16 a3 3c d4 34 95 be 61 a0 fb 3d 97 af 2c be
       0.019908145 -0.29141867 0.12286449 -0.16863857
000020 27 24 2e 3e f6 8e 91 bd 05 20 7b be 4b 7c 54 3c
       0.17005979 -0.07107346 -0.24523933 0.012969087
000030 70 05 42 be 64 1c 9f 3e cf 7f 50 bd 39 68 4c bd
       -0.18947387 0.31076348 -0.050903138 -0.049904082
000040 21 f2 9c bb c7 69 c1 3d e1 c2 10 3e d2 08 ee bd
       -0.004789606 0.094440036 0.1413684 -0.11622776
000050 32 b1 78 3b 20 c3 7c 3d 3a 6f 9f 3d 37 16 9e 3d
       0.0037947414 0.061709523 0.07784887 0.07719081
000060 f1 28 4d 3e 8f b3 8e 3d f7 f3 bc 3d 39 2f f7 3d
       0.20035149 0.06967842 0.0922622 0.12069554
000070 85 b5 1f be 6e 66 ad bd 3a ce 08 bd 46 5e a1 3d
       -0.15596588 -0.084668025 -0.033399798 0.07879309
000080 8c 23 8a bd 4c c6 86 3b c5 ff 5f 3e 0a 0e 09 3e
       -0.06745061 0.0041129943 0.21874912 0.13384262
000090 de 50 07 3c 50 14 4b 3e ca c6 88 be 21 ce 8f 3d
       0.008259026 0.19831967 -0.26714164 0.07021738
0000a0 e4 f3 28 3e a8 d0 d0 3d e3 3e 8e bd d7 6d 0e bd
       0.16499287 0.10196048 -0.069455884 -0.03477272
0000b0 97 3d 17 3e 76 f5 47 bd 4c a0 ff 3d a5 58 07 be
       0.14769588 -0.048818074 0.12481746 -0.13217409
0000c0 ee e4 57 be 7b ed 6b 3d ce f1 63 3d bb ed b0 bd
       -0.21083423 0.057599526 0.055650525 -0.086390935
0000d0 c6 53 a7 bd 0f 80 04 be 70 e1 e6 ba 19 da 96 bd
       -0.081702754 -0.12939475 -0.0017614793 -0.073658176
0000e0 ce 0f 0e 3e 9c e8 63 be f5 e4 95 be 96 e9 fc 3d
       0.13873217 -0.22256702 -0.29276243 0.123492405
0000f0 a4 c9 c5 bd ad 2c 29 3e 49 c6 8d 3e 18 16 97 3d
       -0.096576005 0.16520949 0.27690342 0.07377261
000100 08 bd bf 3d ae ec 7a bb b7 1c 18 bd fb 01 10 be
       0.09362227 -0.0038288045 -0.03713676 -0.14063255
000110 e4 b9 81 bc 24 f6 41 3d 5e 96 81 3e a0 e0 69 be
       -0.01583571 0.04735388 0.25310034 -0.22839594
000120 9e 27 a2 bd 12 93 04 bd cc dd 6c 3e ee c6 cf bd
       -0.07917713 -0.03236682 0.23131484 -0.10145365
000130 53 33 86 3d ac af 97 bb 8f 28 88 bd 2f 7c 69 3d
       0.06552758 -0.004629096 -0.06648361 0.057003196
000140 d9 8d c9 bd a8 98 44 be 4a 51 a8 bd a5 95 1a 3e
       -0.098415084 -0.19198859 -0.0821863 0.15096147
000150 ae 9d c6 3d 18 80 5e 3d fc 8f 9d 3d 97 1f 04 3e
       0.09698044 0.05432138 0.076934785 0.12902676
000160 fe b7 84 bd 50 54 f7 3d 79 ff e2 3d b2 5a 95 be
       -0.06480406 0.12076628 0.11083884 -0.29170758
000170 41 0f 2f 3e dd 24 aa 3d e5 5b 0c 3e d4 5f ed be
       0.17095663 0.08307812 0.1370693 -0.46362174
000180 7d 27 03 be e0 94 65 3d 32 3b 60 bd 04 98 0c be
       -0.12808032 0.05605018 -0.054743953 -0.13729864
000190 c1 c8 ec be e5 4c 23 3d 02 d2 92 bd 2c 58 d8 3c
       -0.46246913 0.039868254 -0.07168962 0.026409231
0001a0 7e 4c b8 bd 93 23 e0 bd ba fc 8a be 61 8a 0d 3d
       -0.08998965 -0.10944285 -0.2714594 0.034555797
0001b0 a6 8c d5 3d 55 46 07 3e 09 6f b1 3b ae df 94 3b
       0.10427217 0.13210423 0.0054148478 0.0045432663
0001c0 b5 6a 9c 3d 13 73 04 be 59 d9 54 bc c9 19 99 be
       0.0763754 -0.12934522 -0.012991273 -0.29902485
0001d0 07 da e1 3d d1 52 d9 3d 16 dc 9e be 67 d3 ab be
       0.110279135 0.10611499 -0.31027287 -0.33559725
0001e0 0d 01 69 3d 1a 8e 08 3e ff 54 14 be 24 af 0e 3d
       0.056885768 0.13335457 -0.14485548 0.034834996
0001f0 b6 32 95 3d ac ac dd bd 65 b7 a0 be bb 4f ae bd
       0.07285063 -0.1082395 -0.3138992 -0.08511301
000200 f0 53 6e be 1e 9c 68 bd 2f 11 76 3e dd 99 83 bd
       -0.23274207 -0.05678951 0.24029993 -0.064258315
000210 57 1d cc bc 95 70 26 be 51 55 25 bd 67 ea e3 3d
       -0.024916334 -0.16253884 -0.040364567 0.11128693
000220 4a 81 e0 bd 88 2b a3 3c 97 11 39 3e ad b3 8d 3d
       -0.1096216 0.019918218 0.18073116 0.06919036
000230 c9 de ba bc 59 49 98 bd 80 69 26 be f2 ea 90 bd
       -0.02281131 -0.07435865 -0.16251183 -0.07076062
000240 b0 13 a8 bb a9 37 94 3e cc af 0e be 5d 6f 6c 3d
       -0.0051293 0.28948715 -0.13934249 0.05772339
000250 22 5d 44 3b 8d 8d 8a 3e ec c0 a4 3d 3d 80 61 bb
       0.0029962738 0.2706112 0.080446094 -0.0034408711
000260 2a 38 81 3e d7 fa be bc d5 5e 0a 3e ea 8d e4 3d
       0.25238162 -0.02331297 0.13512738 0.111598805
000270 8e 20 42 3d d0 48 7a bd 02 41 35 bd 8d 51 d4 bc
       0.047394328 -0.061104596 -0.04425145 -0.025917793
000280 86 a1 21 3e 3b 8f 47 be ef de f7 bd 60 3c a6 bd
       0.15784273 -0.19488232 -0.12103068 -0.08116984
000290 29 5c 6e 3d 07 d8 83 be 67 47 d5 bd 7f b2 1a be
       0.05819336 -0.25750753 -0.104140095 -0.15107153
0002a0 f8 2b 2d 3b 1d df 74 3e 6c 42 2e 3e bc 64 b0 3d
       0.0026423912 0.23913236 0.17017525 0.086129636
0002b0 e4 14 4e 3e e9 cd 74 bc ca 89 a0 bd 04 1f e5 bc
       0.20125157 -0.014941671 -0.07838781 -0.027968891
0002c0 2d 82 18 3e 05 49 4b 3c 4a 96 9e 3d 29 69 b3 3d
       0.14893408 0.012407546 0.07743509 0.08760292
0002d0 4b 13 0b be 00 10 8f 3d 21 b8 a0 be e8 83 3a bd
       -0.13581578 0.06985474 -0.3139048 -0.04553595
0002e0 61 d5 01 3e f1 9b c9 3d 09 3c 89 be 6a 94 d3 be
       0.12679054 0.098441966 -0.26803616 -0.41324168
0002f0 da 26 2d 3e e6 90 2b 3e 3a 2b 19 be b5 46 9d be
       0.16909352 0.16754493 -0.14957896 -0.30718008
000300 05 f4 5a be 44 b1 f8 bd 12 07 78 3e 48 27 ca 3c
       -0.21382149 -0.12143186 0.24221447 0.024676934
000310 51 83 29 bd f6 7a db 3d 20 06 8a 3d a7 3d 10 3e
       -0.041385 0.10716812 0.067394495 0.14086019
000320 f3 13 07 3d 36 ea e8 bd 26 ec 08 3c 4f bd e9 3c
       0.03297801 -0.11372797 0.008357083 0.028532652
000330 72 4f f4 3c 94 3d 77 3d 08 94 71 be 3f 63 9b bd
       0.029823039 0.06036146 -0.23591626 -0.07587289
000340 f3 77 03 3e f7 f6 20 3e cc 84 91 3d 0d 13 1b be
       0.12838726 0.1571921 0.07105407 -0.15143986
000350 8d 8b 0e bb 8d 1d e0 3c 9c 7c 92 3c ac cc 53 be
       -0.002175066 0.02735784 0.017881684 -0.20683545
000360 a0 11 b1 3d db a4 90 be 7d 3f 67 bd e3 9b a2 3d
       0.0864594 -0.28250775 -0.05645703 0.07939889
000370 a2 a3 c0 be a3 71 a0 bc e2 a2 61 3d db af 4b 3d
       -0.37624842 -0.019585436 0.055086978 0.049728256
000380 15 c1 23 3e e4 f0 95 3d b0 ff cf bc 31 bd 37 3d
       0.15991624 0.07321337 -0.025390476 0.04485816
000390 8d e1 04 be 70 d2 04 3e b7 79 c8 bb e2 b3 04 bd
       -0.12976666 0.129709 -0.006118025 -0.032398112
0003a0 d8 15 85 bd ac 7c 18 3e b6 bf 0f bd 99 b4 03 be
       -0.06498307 0.14891309 -0.03509494 -0.12861861
0003b0 5f 61 0a 3e 54 15 c4 3c ab 80 30 bd bb e4 09 3d
       0.13513707 0.023935951 -0.043091457 0.0336654
0003c0 7d 05 9f be eb 47 67 bd 29 a8 5d 3c 65 c1 4b 3e
       -0.31058875 -0.05646507 0.013528862 0.19897993
0003d0 07 ef b6 be 2e 96 e1 bd 64 b5 44 be e5 ca 15 bc
       -0.35729238 -0.110149726 -0.1920982 -0.009142612
0003e0 e1 49 01 3d 8b 6f 6d 3e ad e5 91 bd d8 81 20 3e
       0.031564597 0.23187082 -0.07123885 0.15674531
0003f0 d4 18 36 3c 0e fd cf 3c 6f 3f fd 3d 6c d6 c8 3d
       0.011114318 0.02538922 0.123656146 0.09806523

fc2.bias f4 [10]
000000 6a 38 fc bd 84 4d 05 3e 0e a2 83 bd 5f f7 c8 3d
       -0.12315448 0.13017851 -0.06427394 0.09812807
000010 25 9c 13 3c 65 72 3c bd f0 ca fc bd e3 30 6f bd
       0.009009396 -0.046007533 -0.12343395 -0.05839623
000020 43 1b f2 3d 14 af 9d bd
       0.11821606 -0.07699409
